Date: 2022-05-04 01:16:36.636923 

Model name: res15
Dataset: n1-q3-a1-100-4000
Input shape: (5, 104)
----------------------------------------------------------------
        Layer (type)               Output Shape         Param #
================================================================
            Conv2d-1           [-1, 45, 5, 104]             405
            Conv2d-2           [-1, 45, 5, 104]          18,225
       BatchNorm2d-3           [-1, 45, 5, 104]               0
            Conv2d-4           [-1, 45, 5, 104]          18,225
       BatchNorm2d-5           [-1, 45, 5, 104]               0
            Conv2d-6           [-1, 45, 5, 104]          18,225
       BatchNorm2d-7           [-1, 45, 5, 104]               0
            Conv2d-8           [-1, 45, 5, 104]          18,225
       BatchNorm2d-9           [-1, 45, 5, 104]               0
           Conv2d-10           [-1, 45, 5, 104]          18,225
      BatchNorm2d-11           [-1, 45, 5, 104]               0
           Conv2d-12           [-1, 45, 5, 104]          18,225
      BatchNorm2d-13           [-1, 45, 5, 104]               0
           Conv2d-14           [-1, 45, 5, 104]          18,225
      BatchNorm2d-15           [-1, 45, 5, 104]               0
           Conv2d-16           [-1, 45, 5, 104]          18,225
      BatchNorm2d-17           [-1, 45, 5, 104]               0
           Conv2d-18           [-1, 45, 5, 104]          18,225
      BatchNorm2d-19           [-1, 45, 5, 104]               0
           Conv2d-20           [-1, 45, 5, 104]          18,225
      BatchNorm2d-21           [-1, 45, 5, 104]               0
           Conv2d-22           [-1, 45, 5, 104]          18,225
      BatchNorm2d-23           [-1, 45, 5, 104]               0
           Conv2d-24           [-1, 45, 5, 104]          18,225
      BatchNorm2d-25           [-1, 45, 5, 104]               0
           Conv2d-26           [-1, 45, 5, 104]          18,225
      BatchNorm2d-27           [-1, 45, 5, 104]               0
           Linear-28                   [-1, 10]             460
================================================================
Total params: 237,790
Trainable params: 237,790
Non-trainable params: 0
----------------------------------------------------------------
Input size (MB): 0.00
Forward/backward pass size (MB): 4.82
Params size (MB): 0.91
Estimated Total Size (MB): 5.73
----------------------------------------------------------------
traning sample:18945
…
