Date: 2022-05-05 02:18:01.936103 

Model name: res15
Dataset: n60-q3-a1-100-4000
Input shape: (60, 100)
----------------------------------------------------------------
        Layer (type)               Output Shape         Param #
================================================================
            Conv2d-1          [-1, 45, 60, 100]             405
            Conv2d-2          [-1, 45, 60, 100]          18,225
       BatchNorm2d-3          [-1, 45, 60, 100]               0
            Conv2d-4          [-1, 45, 60, 100]          18,225
       BatchNorm2d-5          [-1, 45, 60, 100]               0
            Conv2d-6          [-1, 45, 60, 100]          18,225
       BatchNorm2d-7          [-1, 45, 60, 100]               0
            Conv2d-8          [-1, 45, 60, 100]          18,225
       BatchNorm2d-9          [-1, 45, 60, 100]               0
           Conv2d-10          [-1, 45, 60, 100]          18,225
      BatchNorm2d-11          [-1, 45, 60, 100]               0
           Conv2d-12          [-1, 45, 60, 100]          18,225
      BatchNorm2d-13          [-1, 45, 60, 100]               0
           Conv2d-14          [-1, 45, 60, 100]          18,225
      BatchNorm2d-15          [-1, 45, 60, 100]               0
           Conv2d-16          [-1, 45, 60, 100]          18,225
      BatchNorm2d-17          [-1, 45, 60, 100]               0
           Conv2d-18          [-1, 45, 60, 100]          18,225
      BatchNorm2d-19          [-1, 45, 60, 100]               0
           Conv2d-20          [-1, 45, 60, 100]          18,225
      BatchNorm2d-21          [-1, 45, 60, 100]               0
           Conv2d-22          [-1, 45, 60, 100]          18,225
      BatchNorm2d-23          [-1, 45, 60, 100]               0
           Conv2d-24          [-1, 45, 60, 100]          18,225
      BatchNorm2d-25          [-1, 45, 60, 100]               0
           Conv2d-26          [-1, 45, 60, 100]          18,225
      BatchNorm2d-27          [-1, 45, 60, 100]               0
           Linear-28                   [-1, 10]             460
================================================================
Total params: 237,790
Trainable params: 237,790
Non-trainable params: 0
----------------------------------------------------------------
Input size (MB): 0.02
Forward/backward pass size (MB): 55.62
Params size (MB): 0.91
Estimated Total Size (MB): 56.55
----------------------------------------------------------------
traning sample:18945
…
train step #150/296 acc: 0.984375, loss: 0.059069
train step #200/296 acc: 0.968750, loss: 0.061304
train step #250/296 acc: 0.984375, loss: 0.040208
Validation acc: 0.942023, loss: 0.187776
Test acc: 0.940456, loss: 0.205616
Cost time:281.168042s

Test acc: 0.951858, loss: 0.150117
Best validation acc:0.960115
Date: 2022-05-05 03:59:41.452214 

Model name: res15
Dataset: n64-q3-a1-100-4000
Input shape: (64, 100)
----------------------------------------------------------------
        Layer (type)               Output Shape         Param #
================================================================
            Conv2d-1          [-1, 45, 64, 100]             405
            Conv2d-2          [-1, 45, 64, 100]          18,225
       BatchNorm2d-3          [-1, 45, 64, 100]               0
            Conv2d-4          [-1, 45, 64, 100]          18,225
       BatchNorm2d-5          [-1, 45, 64, 100]               0
            Conv2d-6          [-1, 45, 64, 100]          18,225
       BatchNorm2d-7          [-1, 45, 64, 100]               0
            Conv2d-8          [-1, 45, 64, 100]          18,225
       BatchNorm2d-9          [-1, 45, 64, 100]               0
           Conv2d-10          [-1, 45, 64, 100]          18,225
      BatchNorm2d-11          [-1, 45, 64, 100]               0
           Conv2d-12          [-1, 45, 64, 100]          18,225
      BatchNorm2d-13          [-1, 45, 64, 100]               0
           Conv2d-14          [-1, 45, 64, 100]          18,225
      BatchNorm2d-15          [-1, 45, 64, 100]               0
           Conv2d-16          [-1, 45, 64, 100]          18,225
      BatchNorm2d-17          [-1, 45, 64, 100]               0
           Conv2d-18          [-1, 45, 64, 100]          18,225
      BatchNorm2d-19          [-1, 45, 64, 100]               0
           Conv2d-20          [-1, 45, 64, 100]          18,225
      BatchNorm2d-21          [-1, 45, 64, 100]               0
           Conv2d-22          [-1, 45, 64, 100]          18,225
      BatchNorm2d-23          [-1, 45, 64, 100]               0
           Conv2d-24          [-1, 45, 64, 100]          18,225
      BatchNorm2d-25          [-1, 45, 64, 100]               0
           Conv2d-26          [-1, 45, 64, 100]          18,225
      BatchNorm2d-27          [-1, 45, 64, 100]               0
           Linear-28                   [-1, 10]             460
================================================================
Total params: 237,790
Trainable params: 237,790
Non-trainable params: 0
----------------------------------------------------------------
Input size (MB): 0.02
Forward/backward pass size (MB): 59.33
Params size (MB): 0.91
Estimated Total Size (MB): 60.26
----------------------------------------------------------------
traning sample:18945
…
